data/model_DDI_predictor_120129_deepDDI_multi_label.pth (torch, 22467 bytes, 2 tensors)

output_linear.weight f4 [81, 64]
0	0xbe469f30	-0.19396663
1	0xbdc710a1	-0.097199686
2	0xbd8d466e	-0.06898199
3	0x3c3ed7a9	0.011648097
4	0xbd8bd39d	-0.068274714
5	0xbdcb108c	-0.099152654
6	0xc24d902a	-51.390785
7	0xbcc35f3f	-0.023849128
8	0xbc2083da	-0.009797061
9	0x3b8be992	0.004269787
10	0xbe8b8441	-0.2724934
11	0xbe19ba9e	-0.15012595
12	0x3f9ac654	1.2091775
13	0x3ddfc98e	0.109271154
14	0x40a0542f	5.0102763
15	0xbdd3b44d	-0.10337124
16	0x3f589ce9	0.84614426
17	0xbd59b6cd	-0.053152848
18	0x3c9d47b4	0.01919923
19	0x3f39309b	0.7233979
20	0xbe39b89e	-0.18136832
21	0x3e282230	0.16419291
22	0x3e01be45	0.12670238
23	0xbeb00953	-0.34382114
24	0xbcd5c68c	-0.026095651
25	0x3e89b87d	0.26898566
26	0x3f645bb6	0.8920244
27	0xc0d0db60	-6.526779
28	0x3d96d016	0.07363908
29	0xbdffec63	-0.12496259
30	0xbdbceaf6	-0.09224503
31	0x3e8f4f87	0.27990362
32	0x40b121cf	5.535377
33	0x3e30c0ea	0.17261091
34	0xbc0fee21	-0.008784802
35	0x41de29b6	27.770367
36	0xbd72a1bb	-0.05923627
37	0xbda9d84e	-0.0829321
38	0xbf34b01d	-0.7058123
39	0x3e107063	0.14105372
40	0xbcd17802	-0.02556992
41	0xbe491493	-0.19636755
42	0x3e02634e	0.12733194
43	0xbe89bdac	-0.2690252
44	0x3d5bebeb	0.053691786
45	0xbe61d7b3	-0.22054939
46	0xbda261af	-0.07928788
47	0x3d0557bc	0.032554373
48	0xbf6a0d05	-0.91426116
49	0xc01a4e05	-2.411012
50	0xbd4b69dd	-0.049661506
51	0xbf7fcffd	-0.9992674
52	0xbf48b236	-0.7839693
53	0x3c8cb822	0.017177645
54	0xbe887428	-0.2665112
55	0xbf2f0d54	-0.6837971
56	0x3ec92bfa	0.39291364
57	0x3dcefdc1	0.101069935
58	0xbe918f78	-0.2842977
59	0x3dd5aeea	0.10433753
60	0xbe3c4374	-0.18385106
61	0xbdf65367	-0.120276265
62	0xbe1327f5	-0.14370711
63	0x3fb2bc22	1.3963664
64	0xbdb116b3	-0.08646908
65	0x3c50eed4	0.012752254
66	0xbedbf81f	-0.4296274
67	0xbe0178a3	-0.12643676
68	0x3decfb62	0.11571385
69	0xbe60d45f	-0.21956013
70	0xc115f286	-9.37171
71	0x3e160caf	0.14653276
72	0x3d1d6f4a	0.03843621
73	0xbe3edbdd	-0.18638559
74	0xbf8bd6d4	-1.0924935
75	0xbe6d5293	-0.23176031
76	0x41bdc3da	23.72063
77	0xbe0beb7c	-0.13664049
78	0x40d303b9	6.5942044
79	0xbc7dce91	-0.015491144
80	0x418f7b94	17.93534
81	0xbd994f67	-0.07485848
82	0xbe0708d6	-0.13186964
83	0x3e490c46	0.19633588
84	0xbf1e8439	-0.61920506
85	0x3f499f7b	0.7875897
86	0x3e2c62e7	0.16834603
87	0x3bddd63e	0.0067699244
88	0x3ecbe391	0.39822057
89	0x3d88f464	0.06687239
90	0x3f27ab34	0.6549561
91	0xc258d532	-54.2082
92	0xbbbfa127	-0.0058480683
93	0x3cf196d0	0.029490858
94	0xbe5a9a18	-0.21347845
95	0x3ee656da	0.44988137
96	0x3d79a640	0.060949564
97	0x3d283dcc	0.04107456
98	0x3d90411f	0.07043671
99	0x4157aadf	13.479217
100	0xbd97c153	-0.074099205
101	0xbdc2ff48	-0.09521347
102	0x3d25aa6e	0.040445738
103	0xbd6ce8e0	-0.057839274
104	0xbc7af0b4	-0.015316177
105	0xbe5139a1	-0.2043214
106	0xbde2200e	-0.1104127
107	0xbddea94d	-0.10872135
108	0x3e624526	0.2209669
109	0xbf1d0145	-0.6133006
110	0x3daf3f8c	0.085570425
111	0xbd5180ff	-0.05114841
112	0xbf9979dd	-1.1990315
113	0xc04117fd	-3.0170891
114	0xbe22d066	-0.1589981
115	0x40ea72c8	7.3265114
116	0xbf61ae34	-0.8815644
117	0x3e85007e	0.25976938
118	0xbe9a5bc9	-0.30148152
119	0x3f14c28b	0.5810935
120	0x3f85af2c	1.0444083
121	0xbc757734	-0.0149820335
122	0xbd0ecba2	-0.034862168
123	0x3fa82bc0	1.3138351
124	0xbee9ce51	-0.4566522
125	0xbeb4db41	-0.35323527
126	0xbca9d11c	-0.020729594
127	0x3f71dc28	0.94476557
128	0xbe1e94af	-0.15486406
129	0x3d143cc0	0.03619075
130	0x3d490faa	0.049087204
131	0x3d53b170	0.05168289
132	0x3ce25e88	0.027632967
133	0xbd5727b9	-0.052528117
134	0xc0a28341	-5.078522
135	0xbbe87b5e	-0.0070947846
136	0x3d3a7aa3	0.04552711
137	0xbd6678e2	-0.056267627
138	0x3e6f8ab7	0.2339276
139	0x3b876e59	0.0041330275
140	0x3ff7e462	1.9366572
141	0xbc20b485	-0.009808664
142	0x3f1bf48a	0.6092001
143	0xbdbcb3ca	-0.092139795
144	0x3f404dab	0.7511851
145	0xbd8223f5	-0.063545145
146	0x3db990c5	0.09060816
147	0x3e455cb4	0.19273645
148	0x3d48ae52	0.04899437
149	0x3e2fa540	0.17152882
150	0x3e078fc3	0.13238434
151	0x3d8c46b1	0.06849421
152	0xbdac7a0d	-0.08421717
153	0x3c9590fd	0.018257612
154	0xbfcf93c6	-1.6216972
155	0x40e3da6e	7.120414
156	0x3d97bb8b	0.07408818
157	0xbd8fc8c4	-0.07020715
158	0x3d648b37	0.055796828
159	0xbd90928a	-0.070592
160	0xc0902e03	-4.5056167
161	0x3ca26c90	0.019827157
162	0x3dee02c5	0.11621622
163	0xbf93eda1	-1.1556894
164	0xbc505e4e	-0.0127177965
165	0xbc00b6f5	-0.00785612
166	0x3fd49abb	1.660972
167	0xbdb20604	-0.08692554
168	0xbd732a16	-0.05936631
169	0xbc3d623b	-0.0115590645
170	0x3e08961b	0.1333851
171	0xbd00ac70	-0.03141445
172	0xbd08fce5	-0.033444304
173	0x3c754117	0.014969132
174	0xbde89f56	-0.11358516
175	0xbd565b3d	-0.052333105
176	0xbe63929a	-0.22223893
177	0x3f678933	0.90443724
178	0x3d593dca	0.053037442
179	0x3f2e921a	0.68191683
180	0x3ebafa69	0.36519173
181	0x3e1e8126	0.15478954
182	0xbe20ea18	-0.157143
183	0x3f88148f	1.0631274
184	0xbeac14fc	-0.3360976
185	0x3dcd8366	0.10034828
186	0xbdb2c085	-0.087281264
187	0x3e05c2d0	0.13062596
188	0xbdb45ee1	-0.08807159
189	0x3d18eeea	0.03733722
190	0xbcee13d5	-0.029062191
191	0x3f3132a1	0.6921788
192	0x3d1f6ed7	0.038924064
193	0xbe12efb3	-0.1434925
194	0xbef6cb4b	-0.48201975
195	0xbdb276f9	-0.087140985
196	0x3e2bbd87	0.16771518
197	0xbde6aea6	-0.1126378
198	0xc263d5fb	-56.958965
199	0x3e52967e	0.2056522
200	0x3bfc1480	0.0076928735
201	0x3d72cbd0	0.059276402
202	0xbfb1ea9b	-1.3899721
203	0x3c9f6660	0.019457996
204	0x3f7be7d4	0.98400617
205	0xbd8fb481	-0.0701685
206	0xc07e419c	-3.9727545
207	0x3c55a3e4	0.013039563
208	0x3f94d021	1.1626016
209	0xbcf7e5ce	-0.030260947
210	0xbdd6762f	-0.104717605
211	0x3f4ef7ec	0.8084705
212	0xbe2514e8	-0.16121256
213	0x3d3e2403	0.046421062
214	0x3dba6f07	0.09103208
215	0xbe9b843b	-0.3037432
216	0x3e0b6a95	0.13614877
217	0x3eca06fe	0.3945846
218	0x3f95f4d3	1.171534
219	0xc0d9242a	-6.7856646
220	0x3dacaada	0.08431025
221	0x3d6debb3	0.05808611
222	0x3d26c5f4	0.040716127
223	0x3eb5b697	0.35490867
224	0x40b114c6	5.533786
225	0x3e0ded50	0.13860059
226	0x3d36011f	0.044434663
227	0x41048191	8.281632
228	0xbd4c4301	-0.049868587
229	0xbea44184	-0.32081234
230	0xbf5f455c	-0.8721521
231	0x3ddedc99	0.108819194
232	0xbe345a74	-0.1761263
233	0xbdec6a3e	-0.115437016
234	0xbe6a7793	-0.22897176
235	0xbd996cf3	-0.074914835
236	0xbb078cea	-0.0020683357
237	0xbe5ab3ca	-0.21357647
238	0x3d87354e	0.06601964
239	0xbe339c47	-0.17540084
240	0xbf603ce9	-0.8759294
241	0xc00c684b	-2.1938655
242	0xbd03a227	-0.032137062
243	0x40cf243b	6.4731727
244	0xbf841658	-1.0319319
245	0xbd978a99	-0.07399482
246	0xbc4f9e75	-0.012672056
247	0xbf6bc541	-0.9209786
248	0x3f1a6c77	0.60321754
249	0xbd3043bf	-0.043033358
250	0x3da8c054	0.08239809
251	0x3e596054	0.21228153
252	0xbe6468e1	-0.22305633
253	0x3d8f5e28	0.07000381
254	0xbc4134e8	-0.011792399
255	0x3fa0b2e4	1.2554593

output_linear.bias f4 [81]
0	0x3f89ce11	1.0766011
1	0x3f9bff78	1.2187338
2	0xbfa815e3	-1.3131679
3	0x3fd6964d	1.6764618
4	0xbfb1d85b	-1.3894151
5	0x3cd84d01	0.026403906
6	0xbecc61f0	-0.3991847
7	0xbd7656a5	-0.060141224
8	0x3e5c3544	0.21504694
9	0xbed7b983	-0.42133722
10	0x3ceef191	0.029167922
11	0x3f5afd25	0.8554252
12	0x3ed595da	0.4171589
13	0xbe002cfe	-0.12517163
14	0x3f285a2a	0.6576258
15	0x3e8a4139	0.27002886
16	0x3fb7ff6c	1.4374824
17	0x3f18c59c	0.5967653
18	0x3f2ce000	0.67529297
19	0x3fb65c64	1.4246945
20	0x3f7b6569	0.98201615
21	0x3ee3f6b8	0.4452417
22	0x3f744bd6	0.95428216
23	0x3e07368b	0.132044
24	0x3ea97378	0.33095908
25	0xbeba92a8	-0.36440015
26	0x3ef88641	0.48539928
27	0x3f82b567	1.021161
28	0xbda31894	-0.07963672
29	0x3ecf744d	0.40518418
30	0x3e0c846a	0.13722387
31	0x400e089c	2.2192755
32	0x3f88029c	1.0625796
33	0x3f8a2e8e	1.0795457
34	0x3f3461c5	0.70461684
35	0x3fb26558	1.3937178
36	0x3dfd9728	0.123823464
37	0x3e1c6f19	0.15276755
38	0xbd85455c	-0.0650737
39	0x3f887f1b	1.066379
40	0xbe577ba5	-0.2104326
41	0x3d872265	0.06598357
42	0x3da5fae1	0.08104492
43	0xbd5f47c5	-0.054511804
44	0x3f041a92	0.51603043
45	0x3e40f2f1	0.18842675
46	0x3f69cc08	0.9132695
47	0x3f8cf953	1.1013588
48	0x3f25e93a	0.64809
49	0x3f592d1f	0.84834474
50	0x3eed9a8c	0.46406972
51	0x3feaacc6	1.8333976
52	0xbf4b69a7	-0.7945809
53	0x3e794a0a	0.2434465
54	0x3f598c9f	0.84980196
55	0x3d45a14a	0.04824952
56	0x3f6e9b57	0.9320578
57	0x3f36abce	0.71355903
58	0x3f17185c	0.59021544
59	0x3f957f53	1.1679481
60	0x3e997a41	0.29976085
61	0x3f6a50c4	0.9152949
62	0x3e3862a6	0.18006381
63	0x3fd448b3	1.6584686
64	0xbe6ebe55	-0.23314793
65	0x3fc36b17	1.5267056
66	0xbe4bdc8a	-0.19908348
67	0x3ebae399	0.36501768
68	0x3f28e69b	0.65976876
69	0xbdc90213	-0.09814849
70	0x3ee78303	0.45217142
71	0x3f83ab93	1.0286735
72	0x3f920c7d	1.1410061
73	0x3fe65161	1.7993585
74	0x3e794f94	0.24346763
75	0x3e8813dc	0.26577652
76	0x3f21cb24	0.63200593
77	0xbe0e4b97	-0.13896023
78	0x3fc6e7fc	1.5539546
79	0x3f99ce35	1.2016054
80	0x3e93a355	0.2883555
